saved/cnn1.yaml.pt (torch, 121077 bytes, 14 tensors)

layer1.0.weight f4 [16, 1, 5, 5]
000000 bb 0d 84 3d 13 40 97 bd 6f f3 10 be 9a d7 a7 3c
       0.064479314 -0.07385268 -0.14155363 0.020488549
000010 96 49 22 3e 61 27 24 3e ab 08 49 3d cf 8c 37 be
       0.15848383 0.16030647 0.049080532 -0.17924808
000020 fa 6b 33 be f5 f1 07 3d e3 45 b7 3d 45 17 df bd
       -0.17521659 0.033189733 0.08948877 -0.1089311
000030 3e 9c 53 3d 13 09 c6 bd 8c 2f 03 3e 69 ad da bd
       0.051662676 -0.096696995 0.12811106 -0.106776066
000040 4f 2b e3 3d 9c 0f b2 3d 09 de b7 bd ea 7f 4d 3d
       0.11092245 0.086943835 -0.08977897 0.050170816
000050 5a 65 9a 3c ce 48 f7 bc 1e 6d 36 be d7 d8 99 bd
       0.018847156 -0.030186083 -0.17815062 -0.07512062
000060 de ec 96 bb 18 0b af bd d4 5b cc bc f2 86 1d be
       -0.0046058735 -0.08547038 -0.02494613 -0.15383509
000070 34 c4 12 3e e4 ae 18 3e 3c 98 89 3d 26 89 0c 3e
       0.14332658 0.14910465 0.067184895 0.13724193
000080 72 f9 15 be dd 40 57 3b a2 21 49 bd e6 c3 96 bd
       -0.14645937 0.0032845058 -0.04910434 -0.073615834
000090 6e b6 28 bd fc db e0 bd a4 0e 09 be 1f 01 bc bc
       -0.041189604 -0.10979459 -0.13384491 -0.022949753
0000a0 af 3c 84 bd e8 42 cc bc 3f 78 1d be d7 ff af bb
       -0.06456887 -0.024934247 -0.15377901 -0.0053710747
0000b0 40 da 44 be 10 c4 17 3e 35 dc 42 3e 52 f6 89 3d
       -0.19223881 0.14820886 0.19029315 0.06736435
0000c0 4a 4f 11 3e 35 be 24 3c ce e1 c7 bd 34 29 ca 3c
       0.14190403 0.0100551145 -0.09759866 0.02467785
0000d0 c5 e3 54 3d 6f 16 11 3e 4f a1 e6 bc 45 57 57 3e
       0.05197503 0.14168714 -0.02815309 0.21029384
0000e0 06 b0 00 3e 17 df 19 be 70 0d df 3c 4c b1 55 3e
       0.12567148 -0.15026508 0.027228087 0.20868415
0000f0 1c fe de bd 49 1b d0 3d f8 14 14 3d 33 d3 3d be
       -0.10888311 0.10161454 0.03615281 -0.18537597
000100 08 9c a7 bd 10 97 92 bc ee e3 4e be 16 5d c3 3d
       -0.081840575 -0.017894298 -0.20204136 0.09539239
000110 95 5e 8a 3d f5 37 35 bc cc 89 2c be 3e f9 58 3d
       0.06756321 -0.0110607045 -0.1684944 0.05297207
000120 ba 2b 14 be 73 b5 5e bc 3c 5b bb bd 0a 4f fa bd
       -0.14469805 -0.013593066 -0.09148261 -0.12222107
000130 a7 e8 00 be 72 6c 10 bd a0 bc 04 3e 11 e2 13 3c
       -0.1258875 -0.03525967 0.1296258 0.009026066
000140 3d c5 0f bd 2f 9f 64 be b6 a0 eb 3d be ef bf bd
       -0.03510021 -0.22326349 0.115052626 -0.09371899
000150 fc cf 02 3e f7 82 50 be 9d fc 60 bd f9 96 c4 3d
       0.12774652 -0.20362459 -0.05492841 0.09599108
000160 93 08 25 3e d4 6b 0c 3e e4 e9 4b be 5e 34 fc 3c
       0.16116552 0.13713008 -0.19913441 0.03078669
000170 e0 2c f1 3c dc dd c8 3d 0e de 84 3d d1 7e fe bd
       0.029440343 0.09807941 0.06487666 -0.12426532
000180 69 49 20 3e 74 a4 34 3e 3b 2b aa 3d 2c 6b bf bd
       0.15653004 0.17640859 0.08309027 -0.09346613
000190 75 99 de bb c7 6f e6 3c 26 37 91 3d dd e5 bc 3d
       -0.006793196 0.028129471 0.07090597 0.092235304
0001a0 94 46 bf 3d ec b8 10 bd b5 7d e9 bd 37 14 c7 bd
       0.093396336 -0.035332605 -0.1140093 -0.097206526
0001b0 f2 43 ef 39 27 26 06 3e 74 8b 1a be 7b 69 64 bd
       0.00045636256 0.13100491 -0.1509226 -0.055764657
0001c0 b0 ff fa bd 4b 6a 4b be f5 9f ba bd ae 47 28 3d
       -0.122558 -0.19864766 -0.09112541 0.041083984
0001d0 f9 e4 50 bd 30 60 e6 bd ca 22 f5 3c 4d 02 d3 bd
       -0.050999615 -0.11248815 0.029923815 -0.10303173
0001e0 fa 0b 3a 3e 62 35 9d 3d 20 6a 53 3e 76 0d 46 bd
       0.18168631 0.076761976 0.20645952 -0.04835268
0001f0 33 0a 00 3d a4 80 16 3d 6d dd a7 bd b9 79 a6 ba
       0.031259727 0.036743775 -0.081965305 -0.0012701071
000200 bb 10 27 be 11 b9 70 bd 47 2a ef 3d 56 17 3d be
       -0.16314976 -0.058770243 0.11677986 -0.18465933
000210 81 23 99 bd dc e6 02 be 6c 61 48 3e 1d ec d4 bc
       -0.07477475 -0.12783378 0.19568413 -0.025991494
000220 a2 a0 09 bd 47 33 1b be 68 d3 a2 3c 02 0d 39 3e
       -0.033600457 -0.1515628 0.019876197 0.18071368
000230 ed fa 7a 3c 7b df 19 be 06 9a c0 3d 58 46 5a 3c
       0.015318614 -0.15026657 0.09404378 0.013322435
000240 0c 87 5a bd 7d 71 05 bd 62 e9 8c bd 44 b1 2d be
       -0.053351447 -0.032578934 -0.06880452 -0.16962153
000250 db 67 53 3d a1 df 95 3d ff aa 48 3e 9d 64 39 bd
       0.051612716 0.073180445 0.1959648 -0.045261968
000260 f1 a4 df bd 7e 4b 9c 3d b7 89 03 3e ae 46 b2 3d
       -0.10920132 0.076315865 0.12845503 0.08704887
000270 2f 89 37 be 10 4a b1 3d a2 70 ba 3d 73 f8 1c be
       -0.17923425 0.086567044 0.09103514 -0.15329151
000280 62 43 73 bc a3 ef 17 3e fa 45 0e be bd 41 f1 3c
       -0.014847608 0.14837508 -0.13893881 0.029450292
000290 76 ea 42 bc 67 d7 b3 bc c1 9d 12 be 4b c4 fa bc
       -0.01189672 -0.021953298 -0.14317991 -0.030611178
0002a0 3e 4a 31 be ac e6 2f be d3 56 10 3d 7d b4 40 be
       -0.17313477 -0.17177838 0.035239052 -0.18818851
0002b0 bc 61 0c be c3 47 d0 bd fb 59 2f 3e 5d 75 bd 3d
       -0.13709158 -0.101699375 0.17124169 0.09250901
0002c0 55 68 23 3e d1 5b 3c be c6 cc 1c be 20 f5 41 bd
       0.15957768 -0.183944 -0.1531249 -0.04735291
0002d0 ba 3f 48 3e ad 26 6a ba 6c 57 2b 3e e8 cf bc bd
       0.1955556 -0.0008932155 0.16732568 -0.092193425
0002e0 ff 1b 87 3d 17 52 23 be 79 f5 49 be 16 d8 f7 3d
       0.06597137 -0.15949284 -0.19722547 0.12101762
0002f0 31 cc 4c be b7 01 63 3d 51 95 3a 3e 12 57 20 be
       -0.19999768 0.055421557 0.18221022 -0.15658215
000300 3e 89 35 3e a0 2f f3 bd fe 18 41 be b8 0d be bd
       0.17728135 -0.11874318 -0.1885719 -0.092799604
000310 d6 bf 03 be 69 77 c9 bd 42 80 3c be ed 0d 34 bd
       -0.12866148 -0.09837229 -0.18408301 -0.043958593
000320 c0 d7 cc 3d 3f d2 bb bb 37 83 0e 3e 5f dc 3e 3e
       0.100020885 -0.0057318504 0.13917242 0.18638752
000330 9f 5e 1c 3c b5 b3 c7 3d 57 3f 3b 3e c3 6f 23 3e
       0.009544044 0.09751073 0.18285881 0.15960602
000340 74 b1 3b 3e 61 41 2a be ac 28 3b be 81 96 29 bd
       0.18329412 -0.16626503 -0.18277234 -0.041403297
000350 30 9a 5e 3d c0 b1 da bd fe cc 1e be 87 26 83 3d
       0.054346263 -0.10678434 -0.15507886 0.06403833
000360 1a 79 ac 3c 07 c4 97 3c 7e a2 a3 3d d4 66 9b bd
       0.02105384 0.01852609 0.07989977 -0.07587972
000370 9c 33 58 3d 52 f1 b5 bd eb c3 12 be 23 de 97 bc
       0.052783594 -0.08883919 -0.1433255 -0.01853854
000380 23 b1 40 3e 04 5a 2e 3e fd 74 a7 3d 6d 34 41 be
       0.18817572 0.17026526 0.081766106 -0.18867655
000390 2d 36 b7 3d fd 44 2e be c4 4e ce 3c 92 5b 0c bd
       0.0894588 -0.17018504 0.025184043 -0.034267016
0003a0 53 1d 4a bd fd 07 38 be ad 20 8b 3d c9 ac 87 3d
       -0.049344372 -0.17971797 0.06793342 0.06624753
0003b0 16 38 d0 bd 73 bb c8 3d 4e 74 6b 3d c9 0d 5a bd
       -0.101669475 0.09801378 0.057483964 -0.053235803
0003c0 5e e0 28 be 45 97 4e bd d9 86 4c bd e5 e4 1e bd
       -0.1649184 -0.05043723 -0.04993329 -0.03879251
0003d0 7b 25 45 3e 1b 56 f2 3d b2 02 a2 bc d2 23 01 be
       0.19252579 0.118328296 -0.019776676 -0.1261132
0003e0 7c 79 9f 3d 36 1c be bd eb fc 4a be 06 89 2c 3e
       0.07786843 -0.092827246 -0.19823043 0.16849145
0003f0 1c 7d 10 be ad 6e 26 be b8 47 20 3e 90 82 16 be
       -0.14110225 -0.16253157 0.15652359 -0.14698243

layer1.0.bias f4 [16]
000000 9f f4 2b 3d 1a 1a 2d 3e f1 aa 0f 3e 41 25 52 bd
       0.041981336 0.16904488 0.14030053 -0.05130506
000010 0f bf ee 3d 3f 8c 00 bc 9d 07 ec bd cd 26 1b be
       0.11657535 -0.007845937 -0.115248896 -0.1515152
000020 59 13 29 3e 8f 73 be 3d 77 c9 3f 3e 2b df 2b be
       0.16511287 0.09299385 0.18729196 -0.1678435
000030 c5 6a 96 3d 79 1c 13 bd 6d c8 97 bd 40 5e 2b be
       0.073445834 -0.035915826 -0.07411275 -0.16735172

layer1.1.weight f4 [16]
000000 aa af 7f 3f 6b ed 81 3f 54 2e 86 3f 99 55 80 3f
       0.9987742 1.0150579 1.0482888 1.0026122
000010 df 1c 86 3f ad 3a 80 3f 25 58 7f 3f 65 f7 7c 3f
       1.0477561 1.0017906 0.9974387 0.98814994
000020 43 6b 76 3f e7 6f 7d 3f 01 cb 79 3f 48 28 82 3f
       0.9625742 0.98998874 0.97575384 1.0168543
000030 a4 56 7d 3f c5 c1 78 3f d8 b0 7f 3f 91 0c 7c 3f
       0.9896033 0.9717067 0.9987922 0.98456675

layer1.1.bias f4 [16]
000000 b2 24 f8 bc ee 6a b7 bc 98 d3 0a bd 11 ef 2f bd
       -0.030290935 -0.022389855 -0.033893198 -0.0429526
000010 20 51 08 bd 78 47 b6 bc 08 f1 aa bc 68 7f d7 bc
       -0.03328049 -0.022250876 -0.020866886 -0.02630587
000020 a2 2e 55 bc 20 15 e2 bc 94 5c 81 bc 88 f9 e5 bc
       -0.013011606 -0.027597964 -0.015791215 -0.028073087
000030 05 33 a1 bc f1 77 27 bd 62 41 b7 bc ef 08 f7 bc
       -0.019677648 -0.04088587 -0.022370044 -0.030155627

layer1.1.running_mean f4 [16]
000000 ad dd 31 3d 6d a1 39 3e 92 7b 08 3e 2f 4f 79 bd
       0.043424297 0.18127985 0.13328388 -0.06086653
000010 82 b7 06 3e 4d 10 af bc f4 ca 00 be f6 14 3d be
       0.1315594 -0.021370078 -0.1257742 -0.18465027
000020 9c e1 42 3e 0d fe b5 3d 8d e0 4d 3e 0a f4 37 be
       0.19031376 0.08886347 0.2010519 -0.17964187
000030 b2 47 5c 3d b7 6f 06 3b 35 dd b2 bd 73 66 3a be
       0.05377931 0.0020513365 -0.08733598 -0.18203144

layer1.1.running_var f4 [16]
000000 57 9e 2f 3e 16 d3 5b 3e 6c 5c 2b 3e 89 88 45 3f
       0.17150246 0.21467242 0.16734475 0.7716146
000010 07 ab 81 3e 2b 1f d7 3e 0c e8 e9 3e f7 f4 17 3f
       0.25325796 0.42015967 0.4568485 0.5935816
000020 a3 08 d7 3e 2e 40 1e 3e da 4f d2 3e 35 82 f1 3e
       0.41998777 0.1545417 0.41076547 0.47169653
000030 a5 27 d0 3e 62 27 9e 3e a9 a3 09 3f f9 77 7d 3e
       0.40655246 0.30889422 0.5376535 0.24752797

layer2.0.weight f4 [32, 16, 5, 5]
000000 e9 88 03 3d 23 e9 fd 3b f3 8e 09 bd 69 a8 b8 3a
       0.03211299 0.0077487393 -0.033583593 0.0014088276
000010 c8 a9 cd bc 37 09 cb bc 79 bd 3a 3d 04 61 cb 3c
       -0.025105372 -0.024784667 0.04559085 0.024826534
000020 6e ff fb 3c f2 ba 98 3c f8 a6 de b9 94 a3 21 3d
       0.030761447 0.01864383 -0.0004246754 0.03946264
000030 25 b1 f0 3b ea fa 08 3d 2e d3 dc bc 49 53 32 bd
       0.007345336 0.033442415 -0.026956167 -0.04353646
000040 af 35 0c 3c d3 69 e6 bc b0 6e b8 bb b2 9f af 3c
       0.008557721 -0.028126633 -0.0056284294 0.021438453
000050 6f f2 f8 3b ab 42 1b bd be 12 07 bd 26 8d 28 3d
       0.0075972597 -0.037905376 -0.03297686 0.041150235
000060 ca ea 4f 3d f1 11 8a bd 46 9d 55 3c 3d f5 4d 3c
       0.05076102 -0.06741703 0.013037985 0.012570676
000070 9f aa 92 bc 54 47 f6 3b 9a 76 d1 3c d1 9e 24 3d
       -0.017903624 0.007515827 0.025569249 0.04019052
000080 af 71 ad 3c 74 db 27 bc cd 2a 53 3d a8 7a fe 3c
       0.021172373 -0.010245193 0.05155449 0.031064346
000090 1b 48 16 3a 93 b2 d0 3b 08 13 55 bc 0b c9 94 bc
       0.00057327905 0.006368944 -0.013005026 -0.018162271
0000a0 9b 90 23 bd 84 36 17 bc 64 bf 39 3c 08 f6 d2 3c
       -0.03993283 -0.009229306 0.011337135 0.025752082
0000b0 4f bb 3a bd 2b 95 31 ba 37 c9 4c bd 58 a4 f9 bc
       -0.045588788 -0.0006774242 -0.04999658 -0.030473873
0000c0 7e 0f 38 3c c6 2d 25 bd 86 50 4f bc 0a 3a 2f 3c
       0.011234162 -0.040326856 -0.012653476 0.01069499
0000d0 07 38 32 3c 6e a5 e5 bc c1 62 dc 3b 11 83 b9 bc
       0.010877616 -0.028032985 0.0067256396 -0.022645505
0000e0 d7 b2 f4 bc 90 e4 e1 bc 7f 26 00 3c 8c cf c1 3c
       -0.029870434 -0.027574807 0.007821678 0.023658536
0000f0 95 e5 dc 3b ba c2 26 bd 84 25 ca 3b 8d b1 60 bd
       0.0067412355 -0.04071305 0.006169023 -0.054856826
000100 dc 8d 6d bc 79 90 12 bd 52 30 02 3c 71 23 e3 3b
       -0.014499154 -0.03578231 0.007946091 0.006931715
000110 9a ac 59 bd 6b d8 07 bd 47 eb 30 bd ec b1 a6 3b
       -0.05314312 -0.033165377 -0.043193128 0.005087128
000120 bf 1d e1 bc 0c cd 39 bb 49 27 6a 3c 25 25 b2 3c
       -0.027480004 -0.0028350977 0.014291593 0.021746228
000130 c8 ae 59 3d 38 79 ed bc 50 69 9f bc a6 17 fc 3c
       0.0531452 -0.028988466 -0.019459397 0.030772995
000140 4b 0c d1 3c 0c a1 19 3d 9c a9 50 3d 64 74 34 ba
       0.025518557 0.037507102 0.050943002 -0.00068837986
000150 42 8b bb 3c 25 1f 3c 3d 5f 0d 49 3c 6d 0c 87 bc
       0.022893552 0.04592814 0.012271254 -0.016485417
000160 9d 6a 21 bd b0 e4 df 3b 99 42 6a bd 20 b8 39 bd
       -0.039408315 0.0068326816 -0.05719242 -0.04534161
000170 8e 03 84 3d 7a 98 71 3d 87 a1 06 3d 94 78 e9 3c
       0.064459905 0.058983304 0.03286889 0.028499879
000180 74 07 60 3d 71 e5 7f 3d 1d 80 17 3c f6 fc 14 3d
       0.054694608 0.06247467 0.009246853 0.036374055
000190 db fe d9 3c d7 f5 b0 bc d6 0e 77 bc 68 39 89 bc
       0.026610782 -0.0216016 -0.015079221 -0.016751006
0001a0 8d e9 2b bc 83 79 f3 bb 0d 84 17 bd 65 c1 b3 bc
       -0.010492695 -0.007430257 -0.036991168 -0.021942804
0001b0 dd ce 23 bb d8 f1 56 3d 42 b5 6d bc 38 48 0e 3d
       -0.0024995126 0.052476734 -0.014508547 0.034736842
0001c0 51 8d 3c bd 5c 8d 52 b9 ce fb 1b 3d 9c cf 8f 3a
       -0.046033207 -0.00020079821 0.038081937 0.0010971907
0001d0 3d ed 68 3a 73 48 77 3c ed 44 84 bc 66 63 73 bd
       0.0008885449 0.015092957 -0.016146148 -0.059420966
0001e0 7c 5c 3b 3d a6 11 f1 bc 07 25 3d bd a0 ba fd bc
       0.045742497 -0.02942736 -0.04617789 -0.030972779
0001f0 9d 5c 38 bd 15 95 1a 3c f6 56 cb 3c 29 ba 64 ba
       -0.045010198 0.009434958 0.02482174 -0.000872525
000200 17 03 d7 3b 04 ec 06 bd 27 e3 a6 bb 4a b2 04 3b
       0.0065616476 -0.032939926 -0.0050929966 0.002024787
000210 aa 07 c8 3c 71 0b 7c bb 3b 27 29 bd 21 69 38 3d
       0.024417717 -0.0038458968 -0.04129718 0.045022134
000220 4c c6 0d bd 6c 4c 2d 3d e9 a6 3b bd 05 41 10 bd
       -0.03461294 0.04230921 -0.045813475 -0.035218257
000230 1a 1f 04 bd 73 60 14 3c b9 63 2a bd c1 75 62 bb
       -0.032256223 0.009056198 -0.04159901 -0.003455505
000240 9d 3a 2d bc 3c eb 2e bd 92 3a 83 3c 3e 70 fe bc
       -0.0105730565 -0.042704806 0.01601914 -0.03105938
000250 6f aa 05 bc 9b 36 e2 3c c3 26 3d bd 50 f5 3b ba
       -0.00815831 0.027613929 -0.046179544 -0.00071700383
000260 b3 6b 22 bd 40 53 12 3c 63 8c 49 3d 21 90 29 3a
       -0.03965349 0.008930981 0.04920615 0.0006468315
000270 d8 74 ff bb d9 63 4e bd a4 d2 d3 bc 4d b6 67 bc
       -0.0077959113 -0.05038819 -0.025857277 -0.014142585
000280 ec 20 cf 3b e6 f3 1d bd 83 cf 6b 3c cf c0 d2 3c
       0.0063210633 -0.038562678 0.014392736 0.025726704
000290 22 05 19 bd 53 f1 02 3d 0a a5 c6 bc 34 33 25 3d
       -0.03735841 0.031968426 -0.024248619 0.040332034
0002a0 a7 30 db 3c f7 4c c1 3c ea ba 3b 3d 38 63 89 3b
       0.026756598 0.02359627 0.045832552 0.004192736
0002b0 7c bb 37 bd 5d d9 a7 3b 7f 53 3f 3d 75 79 3c 3d
       -0.044856533 0.0051223473 0.046710487 0.046014268
0002c0 e7 31 e0 3c 6d 09 42 bd f9 4c bd 3b 93 ef b5 3b
       0.027367545 -0.04737227 0.005776998 0.005552241
0002d0 5a bd 3f 3d ab 08 d3 bc 61 9e 1b bd fb 9e 9d bc
       0.04681144 -0.02576097 -0.03799284 -0.019240847
0002e0 57 b7 00 bd b3 05 ff ba 46 4a 70 3b 63 e4 79 bc
       -0.031424847 -0.0019456655 0.0036665364 -0.015252206
0002f0 5e 95 cf 3c 24 d4 7a bc 68 c6 b4 3c 92 dd 08 3c
       0.025339779 -0.015309367 0.022067264 0.008353608
000300 0c 72 51 bd 12 7f a8 3c 5c 3b ff 3c f1 bc 4f bc
       -0.051134154 0.020568404 0.031156234 -0.0126793245
000310 94 1c 29 3c 78 3d 1b 3c 81 97 d1 bc 42 58 b5 3c
       0.010321755 0.0094751045 -0.025584938 0.022136811
000320 b8 fd 83 3b 50 6b b4 bc 9f a5 31 3d cf f9 91 bc
       0.0040280484 -0.022023827 0.04337084 -0.017819313
000330 0b 8f 5b bd 1c dc 80 ba 5e b5 b4 bb 7e f5 76 bc
       -0.053603213 -0.0009831223 -0.0055147847 -0.015073178
000340 0e 76 67 3c 91 8b 06 3c a0 96 3e bd 18 36 42 bc
       0.0141272675 0.008211986 -0.046530366 -0.011853717
000350 c3 94 0b 3d 39 79 0d bd c7 9a 07 bc 63 a4 88 3c
       0.034077417 -0.034539435 -0.008276648 0.016679948
000360 fb c0 cf bc b3 86 e8 3c f3 86 7f 3a c1 3f c3 3b
       -0.025360575 0.028384542 0.0009747587 0.005958528
000370 08 76 a8 3c 09 0d da bb 96 d3 c5 bc 63 a2 17 3c
       0.020564094 -0.006654386 -0.024148744 0.009255025
000380 58 7a 10 bc ae 85 3b 3d 6c 3b 22 bd 35 24 09 3d
       -0.0088182315 0.045781784 -0.03960745 0.033481795
000390 83 75 a0 3c d2 20 56 3d 18 97 2e bd 3d 7b 0b 3d
       0.019587284 0.052277394 -0.042624563 0.034053076
0003a0 88 4b 44 bc 7b 41 6e 3d 45 99 8e bc bc 16 f7 3c
       -0.011980899 0.058167916 -0.017407069 0.030162208
0003b0 f9 51 13 bc bb 05 ac 3c 6a a3 d1 ba 14 16 ad bc
       -0.008991712 0.020998826 -0.0015994136 -0.021128692
0003c0 75 f0 15 bd 1b 69 1e 3d 47 b4 26 bd 00 35 05 3d
       -0.03660627 0.038674455 -0.04069927 0.032521248
0003d0 02 18 c6 3c 54 07 be 3c 43 62 4c bd 64 3c af bb
       0.02418137 0.023196854 -0.049898397 -0.0053477753
0003e0 e1 f9 ef bc 62 f8 14 3c 64 e7 19 3d e8 1c f1 3b
       -0.029293956 0.009092422 0.037574187 0.007358182
0003f0 f7 a8 16 3b 8c 0f c6 bc f3 c0 17 bd 57 55 8b 3c
       0.0022988894 -0.024177335 -0.037049245 0.017008467

layer2.0.bias f4 [32]
000000 63 3e 3b 3d 68 d0 f3 3b 66 92 f8 3c fc 7a 5d 3c
       0.045713793 0.0074406154 0.030343246 0.013518091
000010 9e b0 ff 3c 8c 58 49 3c 22 35 ef 3c 63 6e 0f bd
       0.031212147 0.012289178 0.02920014 -0.035017382
000020 c5 93 18 bd d8 7c a1 bb 23 bc c6 bc a2 f3 98 3c
       -0.0372503 -0.0049282126 -0.024259632 0.01867086
000030 f1 e7 48 3d e0 bd 1d 3c 48 b4 2b 3c 4c 0b 42 3c
       0.04904932 0.009627789 0.010479994 0.011843514
000040 74 e3 55 bc 00 55 db bb ed 5d 3f 3d e8 49 21 3c
       -0.013054717 -0.0066934824 0.046720434 0.009844281
000050 ab d2 3c 3d 14 f0 0d 3c d5 06 2d 3d 51 2c 48 3d
       0.046099346 0.008663196 0.042242844 0.04887039
000060 91 d4 a8 bb 5f f0 38 bd dd b4 31 3d f7 2a 11 3d
       -0.005152293 -0.04515111 0.043385375 0.035441365
000070 bc ed 83 bc 49 42 0e 3d fb 7d 27 3d 68 ce 35 bd
       -0.016104572 0.034731183 0.04089163 -0.044386297

layer2.1.weight f4 [32]
000000 16 41 83 3f 8f ca 85 3f a4 74 84 3f f5 d5 83 3f
       1.0254238 1.0452441 1.0348096 1.029967
000010 49 e3 87 3f ec 81 88 3f 9f 62 84 3f e1 e8 83 3f
       1.0616237 1.0664649 1.0342597 1.0305444
000020 73 e8 87 3f 92 37 85 3f 1b 23 87 3f 65 7e 83 3f
       1.0617813 1.0407584 1.0557588 1.0272948
000030 f9 dd 86 3f 56 90 84 3f 10 6a 83 3f 87 77 88 3f
       1.0536491 1.0356548 1.0266743 1.0661477
000040 97 cb 85 3f f5 f9 84 3f b7 cf 86 3f e0 56 84 3f
       1.0452756 1.0388781 1.053214 1.0339012
000050 d9 e1 83 3f a4 27 83 3f 4c 1d 85 3f da 05 87 3f
       1.0303298 1.0246472 1.0399566 1.0548661
000060 d8 74 82 3f 70 a2 83 3f 4e 4b 84 3f 9b ff 82 3f
       1.0191908 1.0283947 1.0335481 1.0234255
000070 b9 c6 84 3f a9 df 84 3f ba de 84 3f 78 03 86 3f
       1.0373145 1.0380756 1.0380471 1.0469809

layer2.1.bias f4 [32]
000000 03 68 26 bb b2 37 fc 3a 05 1e 83 3a 95 67 84 ba
       -0.0025391586 0.0019242673 0.0010003453 -0.0010101671
000010 d7 3f 57 3b 9f c6 ae 3b 40 5b 0f bb 28 c9 ae 3b
       0.0032844448 0.005333736 -0.0021874458 0.0053340383
000020 7d d1 e0 3b 38 61 8d bb 1b fe 69 3b c0 f6 02 bb
       0.0068609104 -0.004314568 0.0035704437 -0.00199835
000030 cd 1e ed 3a d0 31 87 3a fa 4b 40 3a 12 a6 18 3c
       0.0018090844 0.0010314528 0.000733554 0.009316938
000040 b7 27 85 3a b6 14 8a 3b e6 b2 f5 38 2f 9f 93 3b
       0.0010158931 0.0042138947 0.00011715833 0.00450506
000050 83 1d 63 3a fa c8 0c 3a 96 2d 21 bb 6a cc 17 3c
       0.00086637604 0.0005370524 -0.0024593822 0.009265045
000060 72 ea a3 3b c5 bc f1 bb cc 4e 75 3b 9f e1 0c bb
       0.0050023133 -0.0073772394 0.0037431 -0.0021496785
000070 c5 fc d9 3b a6 bb 62 3b cf ba b7 b9 1b d1 b6 3b
       0.006652447 0.003459671 -0.00035043663 0.0055791265

layer2.1.running_mean f4 [32]
000000 fe b8 ed 3d 90 89 a1 3e 7f 2c a1 3e 09 dd 1d 3e
       0.1160755 0.31550264 0.3147926 0.1541635
000010 a0 2a 64 be 31 74 09 3e 65 dd 01 3d f8 cd ee 3c
       -0.22281885 0.1342323 0.03170528 0.029150948
000020 43 af 26 be fc 66 8c 3d 37 6c 05 bd 18 dd c6 bd
       -0.16277795 0.0685558 -0.032573905 -0.09710139
000030 b9 7c 79 3e 6d f6 dd 3d 26 85 e4 3d 8d 99 12 3e
       0.24363984 0.108380176 0.111582085 0.14316387
000040 07 01 ed 3c db 16 91 bc 61 ab 1e 3e 1b 09 ad bd
       0.028931154 -0.017711094 0.15495063 -0.08449002
000050 82 28 16 3e 73 72 6b 3d 91 0a 0f 3d b0 e0 19 3e
       0.1466389 0.057482194 0.034922186 0.15027118
000060 87 4c c1 bd 38 e7 d0 3d 0a 3f a1 3d 87 f4 1d 3e
       -0.094384246 0.102003515 0.07873352 0.15425311
000070 ae f6 c6 3b 20 7b 31 3d 24 0b 62 bd 1e ce a9 bd
       0.006071887 0.04333031 -0.055186406 -0.08291267

layer2.1.running_var f4 [32]
000000 d3 ee 85 3e 12 58 9d 3e 93 ad ab 3e e2 eb 85 3e
       0.2615877 0.30731255 0.33530864 0.26156527
000010 78 7a c1 3e b8 60 bb 3e 1e 63 8c 3e 3f b0 9b 3e
       0.3778875 0.36597228 0.2741937 0.30407903
000020 35 bf c8 3e 4c 57 8a 3e b5 66 c4 3e 8b 44 83 3e
       0.3920838 0.27019727 0.3835961 0.25638232
000030 8b d7 93 3e ce ff d7 3e d2 35 74 3e 66 31 86 3e
       0.28875384 0.4218735 0.23848656 0.26209563
000040 f3 a2 a8 3e ba e5 8a 3e 34 20 b7 3e 63 54 71 3e
       0.3293682 0.27128392 0.35766757 0.23567347
000050 f0 9a 93 3e b8 85 b3 3e 70 f6 85 3e b5 3f 8f 3e
       0.28829145 0.35062957 0.2616458 0.27978292
000060 20 ca 66 3e 1f 45 db 3e 30 96 a7 3e 12 c8 92 3e
       0.22538042 0.42826173 0.3273177 0.28668267
000070 63 57 d3 3e a8 bc ad 3e 21 d9 9c 3e 66 86 98 3e
       0.41277608 0.33932996 0.30634406 0.29790038

fc.weight f4 [10, 1568]
000000 85 fc b2 3c f8 71 97 bc 7f 4d 06 bb d4 dc 81 bc
       0.021848926 -0.018486962 -0.0020492969 -0.01585237
000010 e9 b4 98 3c 02 27 9a bc b0 27 f2 3b 6d 31 5b bc
       0.018640952 -0.018817428 0.007389985 -0.013378483
000020 ce dd 9c 3c de 3b 83 bc 08 5b a4 3c 00 3c cb bc
       0.019148733 -0.016019758 0.020062938 -0.024808884
000030 65 f4 e6 bb 3f 13 02 3c de d6 ca 3b 1e ac 4f 3b
       -0.007048177 0.007939159 0.006190165 0.0031688283
000040 01 7b 40 3b 5f e7 88 bc c7 b0 0b bc 04 49 6e 3c
       0.002937019 -0.016711889 -0.008526034 0.0145437755
000050 9d af 42 bc c6 5f b5 3c 6c 91 33 3d 15 6c e3 3c
       -0.01188269 0.022140395 0.043839857 0.027761498
000060 e4 b6 3c bd e2 85 e9 bc 24 89 e5 3c 48 80 07 bb
       -0.046072856 -0.028506223 0.028019495 -0.0020675827
000070 52 e1 cb bc b1 4e a4 3c 71 49 01 3d 91 81 89 3b
       -0.024887715 0.020057054 0.03156418 0.0041963537
000080 5a b0 af bc 3a d9 08 3d 20 9d 04 3d dd 67 f9 bb
       -0.021446396 0.03341029 0.03237641 -0.0076112584
000090 e7 cd 97 bc 24 74 ec 3c 2d ba b0 bc f4 48 77 3c
       -0.0185308 0.028863974 -0.02157315 0.015093077
0000a0 b7 fb 50 bc 48 91 15 3c 79 ec 83 3c 1d bd cd bc
       -0.012755326 0.009128876 0.01610397 -0.02511459
0000b0 9e 93 ac 3c 9a 9e c4 bb 57 53 eb b9 8e e1 20 3c
       0.021066483 -0.006000352 -0.00044884786 0.009819401
0000c0 01 be e9 3b b6 48 ff bb 8a e9 b4 bc 07 a3 8d bc
       0.007133246 -0.0077906502 -0.022084016 -0.017289652
0000d0 46 c2 ac ba 33 23 b5 3c 7e 45 9d 3c 00 82 b9 bc
       -0.0013180457 0.02211151 0.019198176 -0.022644997
0000e0 3c 3e d4 bc 7e 95 69 ba 8f 76 8f 3b c5 94 ed 3b
       -0.025908582 -0.00089105207 0.004378147 0.0072504007
0000f0 49 47 9f bb 73 b1 0e bd aa fe 6c bc 0a 80 9b 3c
       -0.004860793 -0.034837198 -0.0144650135 0.018981952
000100 18 99 6a bb 1c 2f 8e 3c 1b fd 85 3c 0e cb a3 bc
       -0.0035796817 0.017356448 0.016356042 -0.019994285
000110 38 0c 1d 3c 8e db 09 3c fc f4 3b 3c c0 05 96 bc
       0.009585433 0.008414162 0.011471983 -0.018313289
000120 51 2e 9d 3c ab 62 c7 3c a2 12 23 3d fc 4b 93 3c
       0.019187124 0.02433904 0.03981269 0.017980568
000130 f5 99 be 3b b5 31 e7 3c da da 35 3c 01 05 13 3c
       0.005816693 0.028221944 0.011099542 0.008973361
000140 42 cf 02 bd de 0b 23 3d 50 e3 13 3d 7d ae e9 3b
       -0.031935938 0.03980624 0.036105454 0.0071313963
000150 03 d6 88 3c a0 fa dc 3c 1a e1 8a 3c b4 91 88 bd
       0.016703611 0.026974976 0.01695304 -0.06668416
000160 e0 d7 86 3b c3 a2 f4 3b 7e b4 ce 3c 23 7d 43 3c
       0.00411509 0.007465692 0.02523255 0.01193169
000170 6f 28 a3 bc af 84 fb 3b 9a 72 f2 3a 60 c9 1a 3b
       -0.019916741 0.007675729 0.0018497289 0.0023618564
000180 19 f6 9f bb eb 29 bd 3a ec 26 a6 3c 63 ee b5 bc
       -0.004881632 0.0014432048 0.020282231 -0.022208398
000190 2f a2 a5 3b e6 fb 1f bb 47 e2 9d bc bf f6 c6 3c
       0.005054734 -0.0024411618 -0.019272937 0.02428758
0001a0 a0 1e 65 3c 8d 79 41 3b d7 86 af bc 1e e1 01 3a
       0.013984352 0.0029521913 -0.021426601 0.00049545045
0001b0 1a 8d 2e 39 11 a7 38 bc 47 4a 7e bc 93 fb 43 bc
       0.00016646498 -0.0112703005 -0.015520639 -0.011961835
0001c0 8c 75 f5 3c f1 18 82 3b 01 29 62 3b c6 4c 09 bd
       0.029963277 0.0039702584 0.0034509304 -0.033520482
0001d0 07 9c aa 3c 8e f2 ff 3c 7c 14 a8 bc 2e 65 26 ba
       0.020826353 0.031243589 -0.02051758 -0.00063474744
0001e0 86 95 05 3b a3 35 0f bd a6 35 d3 3b 49 46 ed 3c
       0.0020383312 -0.03496326 0.0064456044 0.028964179
0001f0 90 3b af bc 33 3e a7 3b a5 e3 aa 3c 89 2f 04 3c
       -0.021390706 0.0051038503 0.020860502 0.008067974
000200 64 68 1c bc a1 6c 34 3c 61 fc 6f bc 2d a9 d1 bb
       -0.009546373 0.011012227 -0.014647574 -0.006398341
000210 c3 50 09 3d 48 f3 58 3c d5 eb 75 3b 6b 78 a4 3c
       0.033524286 0.0132415965 0.00375246 0.020076951
000220 07 24 c3 3c 40 f3 95 3c c0 44 56 3c 23 44 df 3c
       0.02382089 0.018304467 0.013077915 0.02725417
000230 2a 6b ab bb 7b 9e 32 bc 75 ce 75 3c d6 7e f6 bb
       -0.005231281 -0.0109020425 0.0150028365 -0.0075224442
000240 f5 25 58 3c 81 15 79 3c c3 1b 28 3c f3 eb d7 3a
       0.013192643 0.015202881 0.010260525 0.0016473517
000250 ff 4a 82 3b 41 03 8b bc 03 2f c6 bb d2 16 8b ba
       0.0039762254 -0.016969325 -0.0060480847 -0.0010611659
000260 be b2 f6 3b 06 52 71 3c 99 fe ca ba 4e f2 d9 bc
       0.007528632 0.014729029 -0.0015487253 -0.026604798
000270 8c e5 8c bc df 84 33 bc d0 2d 30 bc 80 01 30 bc
       -0.0171993 -0.010956972 -0.01075311 -0.010742545
000280 3c 59 e7 ba 21 47 bf bc b1 c0 81 bc 99 b3 b7 bc
       -0.0017650495 -0.023349347 -0.015838953 -0.022424506
000290 c5 f4 14 bb af 70 68 3b 16 78 92 bc 29 57 8d bb
       -0.0022728902 0.0035467555 -0.017879527 -0.004313369
0002a0 88 98 cc bb 50 cb 23 bd 61 d3 24 bd 52 3c 43 3c
       -0.006243769 -0.039988816 -0.04024065 0.011916237
0002b0 94 a3 e4 3c c3 7e ff 3c d7 cd 8b bb 01 d3 36 3c
       0.027910031 0.031188374 -0.0042664814 0.011158706
0002c0 43 87 e4 3c 65 66 11 bc 84 ad e7 bb 83 af ba 3c
       0.027896529 -0.00887451 -0.007070245 0.022788769
0002d0 e2 5e 3a 3d 9e c7 94 3c 4f a8 9d ba a3 75 af 3c
       0.045500644 0.018161591 -0.0012028309 0.021418398
0002e0 69 07 16 bc b0 ef a3 bc 67 b3 ce bc 64 7c ab 3c
       -0.00915704 -0.020011753 -0.02523203 0.020933338
0002f0 b9 e3 4d 3b 79 42 84 bc 1a 1b 8f 3c d8 a1 ae 3c
       0.003141625 -0.016144978 0.017468978 0.021317407
000300 dd 12 bd bb f7 44 6f bc e9 6f 42 bc 89 33 af bc
       -0.005770071 -0.014603845 -0.011867502 -0.021386879
000310 b8 8f 5c bc d4 f5 9a bc 9f 2a d4 bb 60 1e 7a bc
       -0.013462 -0.018916048 -0.0064748074 -0.015266031
000320 15 bf 31 bc b9 23 84 bb ba 4c 2e 3b ec 9f 57 bc
       -0.01084878 -0.004032579 0.0026596026 -0.013160687
000330 9d ad ce bc ba 57 f6 ba 08 ca 76 3c 70 c5 a8 bc
       -0.02522927 -0.0018794455 0.015062816 -0.020601958
000340 cf b3 d6 bc 06 1d b3 3c 43 aa 43 bc a2 bc 70 3b
       -0.026208786 0.021864425 -0.011942449 0.0036733528
000350 91 cf bb 3c 8f 81 c4 bc 85 49 46 3d d3 96 ed 3c
       0.022926124 -0.02398756 0.048409957 0.029002583
000360 f5 4c 00 bd 79 c1 85 bc 06 f2 6d 3c 7a cb 5a 3c
       -0.031323392 -0.016327607 0.014523035 0.013354177
000370 de 8b 00 bd ab ec 46 3d 1b f1 89 3d 03 52 d6 bc
       -0.031383388 0.048565548 0.0673544 -0.026162153
000380 32 00 7c 3b e2 fe 0b 3d 40 2f 20 3c b6 d8 44 bd
       0.0038452265 0.034178622 0.00977689 -0.048058234
000390 b3 aa 97 bc 35 04 de 3c 61 35 b3 3b 43 79 a9 bc
       -0.018514013 0.027101615 0.0054690097 -0.020687705
0003a0 32 80 a4 3c 5f 2e 9a 3c d9 ca bc bb 6a 45 3c bd
       0.02008066 0.01882094 -0.005761486 -0.045964636
0003b0 30 12 d4 bc 37 8c 8b bb c1 71 b8 3b eb f0 db bb
       -0.025887579 -0.0042586583 0.005628795 -0.0067120693
0003c0 79 c2 db 3c 84 1b 7f bc 0e 33 42 bb 48 dd f8 3b
       0.02682613 -0.015570525 -0.0029632482 0.007594738
0003d0 29 9d b6 3c dd 7b 6f 3c 53 f1 04 3c 41 49 55 3a
       0.022291737 0.014616934 0.008114177 0.0008136221
0003e0 dc 80 c0 3c 28 b5 be 3c 7b 5e 43 3a 88 c0 7b bc
       0.023498945 0.023279741 0.00074527384 -0.015365727
0003f0 ee ba 6d bc e8 6d 6b bb 66 86 eb bc 05 50 09 bd
       -0.0145099 -0.0035923664 -0.02875061 -0.03352358

fc.bias f4 [10]
000000 69 11 2a bc ed 96 9b 3c 99 bf 38 3c c8 a8 6b bc
       -0.0103801275 0.018992865 0.011276149 -0.014383502
000010 86 02 ac 3c da 2c 0f 3c e2 e0 27 3b 43 1c 91 39
       0.020997297 0.008738721 0.0025616218 0.00027677612
000020 47 7d d2 ba bc 27 c9 3b
       -0.0016059064 0.00613877
